Using TensorFlow backend.
2018-04-04 10:25:59.950239: I tensorflow/core/platform/cpu_feature_guard.cc:140] Your CPU supports instructions that this TensorFlow binary was not compiled to use: AVX2 FMA
_________________________________________________________________
Layer (type)                 Output Shape              Param #   
=================================================================
conv2d_1 (Conv2D)            (None, 32, 32, 256)       512       
_________________________________________________________________
batch_normalization_1 (Batch (None, 32, 32, 256)       1024      
_________________________________________________________________
conv2d_2 (Conv2D)            (None, 29, 29, 256)       1048832   
_________________________________________________________________
batch_normalization_2 (Batch (None, 29, 29, 256)       1024      
_________________________________________________________________
conv2d_3 (Conv2D)            (None, 26, 26, 256)       1048832   
_________________________________________________________________
batch_normalization_3 (Batch (None, 26, 26, 256)       1024      
_________________________________________________________________
flatten_1 (Flatten)          (None, 173056)            0         
_________________________________________________________________
dense_1 (Dense)              (None, 512)               88605184  
_________________________________________________________________
batch_normalization_4 (Batch (None, 512)               2048      
_________________________________________________________________
dropout_1 (Dropout)          (None, 512)               0         
_________________________________________________________________
dense_2 (Dense)              (None, 256)               131328    
_________________________________________________________________
batch_normalization_5 (Batch (None, 256)               1024      
_________________________________________________________________
dropout_2 (Dropout)          (None, 256)               0         
_________________________________________________________________
dense_3 (Dense)              (None, 128)               32896     
_________________________________________________________________
batch_normalization_6 (Batch (None, 128)               512       
_________________________________________________________________
dropout_3 (Dropout)          (None, 128)               0         
_________________________________________________________________
dense_4 (Dense)              (None, 28)                3612      
=================================================================
Total params: 90,877,852
Trainable params: 90,874,524
Non-trainable params: 3,328
_________________________________________________________________
Train on 13439 samples, validate on 3359 samples
Epoch 1/25

   64/13439 [..............................] - ETA: 35:14 - loss: 5.4716 - acc: 0.0469
  128/13439 [..............................] - ETA: 30:24 - loss: 5.0688 - acc: 0.0547
…
