Using TensorFlow backend.
_________________________________________________________________
Layer (type)                 Output Shape              Param #   
=================================================================
conv2d_1 (Conv2D)            (None, 31, 31, 256)       1280      
_________________________________________________________________
batch_normalization_1 (Batch (None, 31, 31, 256)       1024      
_________________________________________________________________
conv2d_2 (Conv2D)            (None, 28, 28, 256)       1048832   
_________________________________________________________________
batch_normalization_2 (Batch (None, 28, 28, 256)       1024      
_________________________________________________________________
max_pooling2d_1 (MaxPooling2 (None, 14, 14, 256)       0         
_________________________________________________________________
conv2d_3 (Conv2D)            (None, 11, 11, 256)       1048832   
_________________________________________________________________
batch_normalization_3 (Batch (None, 11, 11, 256)       1024      
_________________________________________________________________
conv2d_4 (Conv2D)            (None, 8, 8, 256)         1048832   
_________________________________________________________________
batch_normalization_4 (Batch (None, 8, 8, 256)         1024      
_________________________________________________________________
dropout_1 (Dropout)          (None, 8, 8, 256)         0         
_________________________________________________________________
flatten_1 (Flatten)          (None, 16384)             0         
_________________________________________________________________
dense_1 (Dense)              (None, 512)               8389120   
_________________________________________________________________
batch_normalization_5 (Batch (None, 512)               2048      
_________________________________________________________________
dropout_2 (Dropout)          (None, 512)               0         
_________________________________________________________________
dense_2 (Dense)              (None, 256)               131328    
_________________________________________________________________
batch_normalization_6 (Batch (None, 256)               1024      
_________________________________________________________________
dropout_3 (Dropout)          (None, 256)               0         
_________________________________________________________________
dense_3 (Dense)              (None, 128)               32896     
_________________________________________________________________
batch_normalization_7 (Batch (None, 128)               512       
_________________________________________________________________
dropout_4 (Dropout)          (None, 128)               0         
_________________________________________________________________
dense_4 (Dense)              (None, 28)                3612      
=================================================================
Total params: 11,712,412
Trainable params: 11,708,572
Non-trainable params: 3,840
_________________________________________________________________

Epoch 00001: val_acc improved from -inf to 0.52248, saving model to trained_model.h5

Epoch 00002: val_acc did not improve

Epoch 00003: val_acc improved from 0.52248 to 0.55761, saving model to trained_model.h5
…
